…
I0411 19:43:32.819861   110 net.cpp:339] The NetState phase (0) differed from the phase (1) specified by a rule in layer data
I0411 19:43:32.819929   110 net.cpp:339] The NetState phase (0) differed from the phase (1) specified by a rule in layer accuracy
I0411 19:43:32.820129   110 net.cpp:50] Initializing net from parameters: 
name: "EmbedNet"
state {
  phase: TRAIN
}
layer {
  name: "data"
  type: "HDF5Data"
  top: "data"
  top: "label"
  include {
    phase: TRAIN
  }
  hdf5_data_param {
    source: "/data/data/train.txt"
    batch_size: 100
  }
}
layer {
  name: "conv1"
  type: "Convolution"
  bottom: "data"
  top: "conv1"
  param {
    lr_mult: 1
    decay_mult: 1
  }
  param {
    lr_mult: 2
    decay_mult: 0
  }
  convolution_param {
    num_output: 16
    weight_filler {
      type: "xavier"
    }
    bias_filler {
      type: "constant"
      value: 0
    }
    pad_h: 0
    pad_w: 12
    kernel_h: 1
    kernel_w: 24
    stride_h: 1
    stride_w: 1
  }
}
layer {
  name: "relu1"
  type: "ReLU"
  bottom: "conv1"
  top: "conv1"
}
layer {
  name: "pool1"
  type: "Pooling"
  bottom: "conv1"
  top: "pool1"
  pooling_param {
    pool: MAX
    kernel_h: 1
    kernel_w: 102
    stride_h: 1
    stride_w: 2
  }
}
layer {
  name: "fc1"
  type: "InnerProduct"
  bottom: "pool1"
  top: "fc1"
  param {
    lr_mult: 1
    decay_mult: 1
  }
  param {
    lr_mult: 2
    decay_mult: 0
  }
  inner_product_param {
    num_output: 32
    weight_filler {
      type: "xavier"
    }
    bias_filler {
      type: "constant"
      value: 0
    }
  }
}
layer {
  name: "relu4"
  type: "ReLU"
  bottom: "fc1"
  top: "fc1"
}
layer {
  name: "drop1"
  type: "Dropout"
  bottom: "fc1"
  top: "fc1"
  dropout_param {
    dropout_ratio: 0.1
  }
}
layer {
  name: "fc2"
  type: "InnerProduct"
  bottom: "fc1"
  top: "fc2"
  param {
    lr_mult: 1
    decay_mult: 1
  }
  param {
    lr_mult: 2
    decay_mult: 0
  }
  inner_product_param {
    num_output: 2
    weight_filler {
      type: "xavier"
    }
    bias_filler {
      type: "constant"
      value: 0
    }
  }
}
layer {
  name: "loss6"
  type: "SoftmaxWithLoss"
  bottom: "fc2"
  bottom: "label"
  top: "loss"
}
I0411 19:43:32.820261   110 layer_factory.hpp:76] Creating layer data
I0411 19:43:32.820297   110 net.cpp:110] Creating Layer data
I0411 19:43:32.820317   110 net.cpp:433] data -> data
I0411 19:43:32.820358   110 net.cpp:433] data -> label
I0411 19:43:32.820395   110 hdf5_data_layer.cpp:80] Loading list of HDF5 filenames from: /data/data/train.txt
I0411 19:43:32.820914   110 hdf5_data_layer.cpp:94] Number of HDF5 files: 3
I0411 19:43:32.823034   110 hdf5.cpp:35] Datatype class: H5T_INTEGER
I0411 19:43:32.876044   110 hdf5.cpp:32] Datatype class: H5T_FLOAT
I0411 19:43:32.876799   110 net.cpp:155] Setting up data
I0411 19:43:32.876822   110 net.cpp:163] Top shape: 100 4 1 101 (40400)
I0411 19:43:32.876829   110 net.cpp:163] Top shape: 100 1 (100)
I0411 19:43:32.876838   110 layer_factory.hpp:76] Creating layer conv1
I0411 19:43:32.876859   110 net.cpp:110] Creating Layer conv1
I0411 19:43:32.876865   110 net.cpp:477] conv1 <- data
I0411 19:43:32.876875   110 net.cpp:433] conv1 -> conv1
I0411 19:43:32.877789   110 net.cpp:155] Setting up conv1
I0411 19:43:32.877800   110 net.cpp:163] Top shape: 100 16 1 102 (163200)
I0411 19:43:32.877816   110 layer_factory.hpp:76] Creating layer relu1
I0411 19:43:32.877825   110 net.cpp:110] Creating Layer relu1
I0411 19:43:32.877830   110 net.cpp:477] relu1 <- conv1
I0411 19:43:32.877836   110 net.cpp:419] relu1 -> conv1 (in-place)
I0411 19:43:32.877846   110 net.cpp:155] Setting up relu1
I0411 19:43:32.877856   110 net.cpp:163] Top shape: 100 16 1 102 (163200)
I0411 19:43:32.877861   110 layer_factory.hpp:76] Creating layer pool1
I0411 19:43:32.877868   110 net.cpp:110] Creating Layer pool1
I0411 19:43:32.877873   110 net.cpp:477] pool1 <- conv1
I0411 19:43:32.877879   110 net.cpp:433] pool1 -> pool1
I0411 19:43:32.877914   110 net.cpp:155] Setting up pool1
I0411 19:43:32.877921   110 net.cpp:163] Top shape: 100 16 1 1 (1600)
I0411 19:43:32.877926   110 layer_factory.hpp:76] Creating layer fc1
I0411 19:43:32.877938   110 net.cpp:110] Creating Layer fc1
I0411 19:43:32.877943   110 net.cpp:477] fc1 <- pool1
I0411 19:43:32.877949   110 net.cpp:433] fc1 -> fc1
I0411 19:43:32.878463   110 net.cpp:155] Setting up fc1
I0411 19:43:32.878475   110 net.cpp:163] Top shape: 100 32 (3200)
I0411 19:43:32.878484   110 layer_factory.hpp:76] Creating layer relu4
I0411 19:43:32.878491   110 net.cpp:110] Creating Layer relu4
I0411 19:43:32.878496   110 net.cpp:477] relu4 <- fc1
I0411 19:43:32.878502   110 net.cpp:419] relu4 -> fc1 (in-place)
I0411 19:43:32.878509   110 net.cpp:155] Setting up relu4
I0411 19:43:32.878515   110 net.cpp:163] Top shape: 100 32 (3200)
I0411 19:43:32.878520   110 layer_factory.hpp:76] Creating layer drop1
I0411 19:43:32.878530   110 net.cpp:110] Creating Layer drop1
I0411 19:43:32.878533   110 net.cpp:477] drop1 <- fc1
I0411 19:43:32.878540   110 net.cpp:419] drop1 -> fc1 (in-place)
I0411 19:43:32.878561   110 net.cpp:155] Setting up drop1
I0411 19:43:32.878569   110 net.cpp:163] Top shape: 100 32 (3200)
I0411 19:43:32.878574   110 layer_factory.hpp:76] Creating layer fc2
I0411 19:43:32.878582   110 net.cpp:110] Creating Layer fc2
I0411 19:43:32.878587   110 net.cpp:477] fc2 <- fc1
I0411 19:43:32.878593   110 net.cpp:433] fc2 -> fc2
I0411 19:43:32.878664   110 net.cpp:155] Setting up fc2
I0411 19:43:32.878672   110 net.cpp:163] Top shape: 100 2 (200)
I0411 19:43:32.878681   110 layer_factory.hpp:76] Creating layer loss6
I0411 19:43:32.878691   110 net.cpp:110] Creating Layer loss6
I0411 19:43:32.878696   110 net.cpp:477] loss6 <- fc2
I0411 19:43:32.878702   110 net.cpp:477] loss6 <- label
I0411 19:43:32.878710   110 net.cpp:433] loss6 -> loss
I0411 19:43:32.878721   110 layer_factory.hpp:76] Creating layer loss6
I0411 19:43:32.878793   110 net.cpp:155] Setting up loss6
…
I0411 19:43:32.878876   110 net.cpp:298] Memory required for data: 1513204
I0411 19:43:32.880185   110 solver.cpp:187] Creating test net (#0) specified by net file: trainval.prototxt
I0411 19:43:32.880275   110 net.cpp:339] The NetState phase (1) differed from the phase (0) specified by a rule in layer data
I0411 19:43:32.880512   110 net.cpp:50] Initializing net from parameters: 
name: "EmbedNet"
state {
  phase: TEST
}
layer {
  name: "data"
  type: "HDF5Data"
  top: "data"
  top: "label"
  include {
    phase: TEST
  }
  hdf5_data_param {
    source: "/data/data/valid.txt"
    batch_size: 100
  }
}
layer {
  name: "conv1"
  type: "Convolution"
  bottom: "data"
  top: "conv1"
  param {
    lr_mult: 1
    decay_mult: 1
  }
  param {
    lr_mult: 2
    decay_mult: 0
  }
  convolution_param {
    num_output: 16
    weight_filler {
      type: "xavier"
    }
    bias_filler {
      type: "constant"
      value: 0
    }
    pad_h: 0
    pad_w: 12
    kernel_h: 1
    kernel_w: 24
    stride_h: 1
    stride_w: 1
  }
}
layer {
  name: "relu1"
  type: "ReLU"
  bottom: "conv1"
  top: "conv1"
}
layer {
  name: "pool1"
  type: "Pooling"
  bottom: "conv1"
  top: "pool1"
  pooling_param {
    pool: MAX
    kernel_h: 1
    kernel_w: 102
    stride_h: 1
    stride_w: 2
  }
}
layer {
  name: "fc1"
  type: "InnerProduct"
  bottom: "pool1"
  top: "fc1"
  param {
    lr_mult: 1
    decay_mult: 1
  }
  param {
    lr_mult: 2
    decay_mult: 0
  }
  inner_product_param {
    num_output: 32
    weight_filler {
      type: "xavier"
    }
    bias_filler {
      type: "constant"
      value: 0
    }
  }
}
layer {
  name: "relu4"
  type: "ReLU"
  bottom: "fc1"
  top: "fc1"
}
layer {
  name: "drop1"
  type: "Dropout"
  bottom: "fc1"
  top: "fc1"
  dropout_param {
    dropout_ratio: 0.1
  }
}
layer {
  name: "fc2"
  type: "InnerProduct"
  bottom: "fc1"
  top: "fc2"
  param {
    lr_mult: 1
    decay_mult: 1
  }
  param {
    lr_mult: 2
    decay_mult: 0
  }
  inner_product_param {
    num_output: 2
    weight_filler {
      type: "xavier"
    }
    bias_filler {
      type: "constant"
      value: 0
    }
  }
}
layer {
  name: "loss6"
  type: "SoftmaxWithLoss"
  bottom: "fc2"
  bottom: "label"
  top: "loss"
}
layer {
  name: "accuracy"
  type: "Accuracy"
  bottom: "fc2"
  bottom: "label"
  top: "accuracy"
  include {
    phase: TEST
  }
}
I0411 19:43:32.880689   110 layer_factory.hpp:76] Creating layer data
I0411 19:43:32.880717   110 net.cpp:110] Creating Layer data
I0411 19:43:32.880733   110 net.cpp:433] data -> data
I0411 19:43:32.880759   110 net.cpp:433] data -> label
I0411 19:43:32.880781   110 hdf5_data_layer.cpp:80] Loading list of HDF5 filenames from: /data/data/valid.txt
I0411 19:43:32.881336   110 hdf5_data_layer.cpp:94] Number of HDF5 files: 1
I0411 19:43:32.902010   110 net.cpp:155] Setting up data
I0411 19:43:32.902034   110 net.cpp:163] Top shape: 100 4 1 101 (40400)
I0411 19:43:32.902040   110 net.cpp:163] Top shape: 100 1 (100)
I0411 19:43:32.902046   110 layer_factory.hpp:76] Creating layer label_data_1_split
I0411 19:43:32.902061   110 net.cpp:110] Creating Layer label_data_1_split
I0411 19:43:32.902068   110 net.cpp:477] label_data_1_split <- label
I0411 19:43:32.902076   110 net.cpp:433] label_data_1_split -> label_data_1_split_0
I0411 19:43:32.902086   110 net.cpp:433] label_data_1_split -> label_data_1_split_1
I0411 19:43:32.902117   110 net.cpp:155] Setting up label_data_1_split
I0411 19:43:32.902127   110 net.cpp:163] Top shape: 100 1 (100)
I0411 19:43:32.902132   110 net.cpp:163] Top shape: 100 1 (100)
I0411 19:43:32.902137   110 layer_factory.hpp:76] Creating layer conv1
I0411 19:43:32.902146   110 net.cpp:110] Creating Layer conv1
I0411 19:43:32.902151   110 net.cpp:477] conv1 <- data
I0411 19:43:32.902159   110 net.cpp:433] conv1 -> conv1
I0411 19:43:32.902330   110 net.cpp:155] Setting up conv1
I0411 19:43:32.902340   110 net.cpp:163] Top shape: 100 16 1 102 (163200)
I0411 19:43:32.902353   110 layer_factory.hpp:76] Creating layer relu1
I0411 19:43:32.902359   110 net.cpp:110] Creating Layer relu1
I0411 19:43:32.902364   110 net.cpp:477] relu1 <- conv1
I0411 19:43:32.902370   110 net.cpp:419] relu1 -> conv1 (in-place)
I0411 19:43:32.902377   110 net.cpp:155] Setting up relu1
I0411 19:43:32.902384   110 net.cpp:163] Top shape: 100 16 1 102 (163200)
I0411 19:43:32.902389   110 layer_factory.hpp:76] Creating layer pool1
I0411 19:43:32.902396   110 net.cpp:110] Creating Layer pool1
I0411 19:43:32.902400   110 net.cpp:477] pool1 <- conv1
I0411 19:43:32.902406   110 net.cpp:433] pool1 -> pool1
I0411 19:43:32.902439   110 net.cpp:155] Setting up pool1
I0411 19:43:32.902447   110 net.cpp:163] Top shape: 100 16 1 1 (1600)
I0411 19:43:32.902452   110 layer_factory.hpp:76] Creating layer fc1
I0411 19:43:32.902462   110 net.cpp:110] Creating Layer fc1
I0411 19:43:32.902467   110 net.cpp:477] fc1 <- pool1
I0411 19:43:32.902473   110 net.cpp:433] fc1 -> fc1
I0411 19:43:32.902559   110 net.cpp:155] Setting up fc1
I0411 19:43:32.902567   110 net.cpp:163] Top shape: 100 32 (3200)
I0411 19:43:32.902576   110 layer_factory.hpp:76] Creating layer relu4
I0411 19:43:32.902583   110 net.cpp:110] Creating Layer relu4
I0411 19:43:32.902588   110 net.cpp:477] relu4 <- fc1
I0411 19:43:32.902595   110 net.cpp:419] relu4 -> fc1 (in-place)
I0411 19:43:32.902601   110 net.cpp:155] Setting up relu4
I0411 19:43:32.902607   110 net.cpp:163] Top shape: 100 32 (3200)
I0411 19:43:32.902611   110 layer_factory.hpp:76] Creating layer drop1
I0411 19:43:32.902618   110 net.cpp:110] Creating Layer drop1
I0411 19:43:32.902623   110 net.cpp:477] drop1 <- fc1
I0411 19:43:32.902629   110 net.cpp:419] drop1 -> fc1 (in-place)
I0411 19:43:32.902649   110 net.cpp:155] Setting up drop1
I0411 19:43:32.902657   110 net.cpp:163] Top shape: 100 32 (3200)
I0411 19:43:32.902662   110 layer_factory.hpp:76] Creating layer fc2
I0411 19:43:32.902670   110 net.cpp:110] Creating Layer fc2
I0411 19:43:32.902674   110 net.cpp:477] fc2 <- fc1
I0411 19:43:32.902681   110 net.cpp:433] fc2 -> fc2
I0411 19:43:32.902757   110 net.cpp:155] Setting up fc2
I0411 19:43:32.902766   110 net.cpp:163] Top shape: 100 2 (200)
I0411 19:43:32.902776   110 layer_factory.hpp:76] Creating layer fc2_fc2_0_split
I0411 19:43:32.902782   110 net.cpp:110] Creating Layer fc2_fc2_0_split
I0411 19:43:32.902787   110 net.cpp:477] fc2_fc2_0_split <- fc2
I0411 19:43:32.902793   110 net.cpp:433] fc2_fc2_0_split -> fc2_fc2_0_split_0
I0411 19:43:32.902801   110 net.cpp:433] fc2_fc2_0_split -> fc2_fc2_0_split_1
I0411 19:43:32.902830   110 net.cpp:155] Setting up fc2_fc2_0_split
I0411 19:43:32.902839   110 net.cpp:163] Top shape: 100 2 (200)
I0411 19:43:32.902844   110 net.cpp:163] Top shape: 100 2 (200)
I0411 19:43:32.902849   110 layer_factory.hpp:76] Creating layer loss6
I0411 19:43:32.902856   110 net.cpp:110] Creating Layer loss6
I0411 19:43:32.902860   110 net.cpp:477] loss6 <- fc2_fc2_0_split_0
I0411 19:43:32.902866   110 net.cpp:477] loss6 <- label_data_1_split_0
I0411 19:43:32.902873   110 net.cpp:433] loss6 -> loss
I0411 19:43:32.902881   110 layer_factory.hpp:76] Creating layer loss6
…
