…
I0411 19:42:08.153838   103 net.cpp:339] The NetState phase (0) differed from the phase (1) specified by a rule in layer data
I0411 19:42:08.153857   103 net.cpp:339] The NetState phase (0) differed from the phase (1) specified by a rule in layer accuracy
I0411 19:42:08.153925   103 net.cpp:50] Initializing net from parameters: 
name: "EmbedNet"
state {
  phase: TRAIN
}
layer {
  name: "data"
  type: "HDF5Data"
  top: "data"
  top: "label"
  include {
    phase: TRAIN
  }
  hdf5_data_param {
    source: "/data/data/train.txt"
    batch_size: 100
  }
}
layer {
  name: "conv1"
  type: "Convolution"
  bottom: "data"
  top: "conv1"
  param {
    lr_mult: 1
    decay_mult: 1
  }
  param {
    lr_mult: 2
    decay_mult: 0
  }
  convolution_param {
    num_output: 16
    weight_filler {
      type: "xavier"
    }
    bias_filler {
      type: "constant"
      value: 0
    }
    pad_h: 0
    pad_w: 12
    kernel_h: 1
    kernel_w: 24
    stride_h: 1
    stride_w: 1
  }
}
layer {
  name: "relu1"
  type: "ReLU"
  bottom: "conv1"
  top: "conv1"
}
layer {
  name: "pool1"
  type: "Pooling"
  bottom: "conv1"
  top: "pool1"
  pooling_param {
    pool: MAX
    kernel_h: 1
    kernel_w: 102
    stride_h: 1
    stride_w: 2
  }
}
layer {
  name: "fc1"
  type: "InnerProduct"
  bottom: "pool1"
  top: "fc1"
  param {
    lr_mult: 1
    decay_mult: 1
  }
  param {
    lr_mult: 2
    decay_mult: 0
  }
  inner_product_param {
    num_output: 32
    weight_filler {
      type: "xavier"
    }
    bias_filler {
      type: "constant"
      value: 0
    }
  }
}
layer {
  name: "relu4"
  type: "ReLU"
  bottom: "fc1"
  top: "fc1"
}
layer {
  name: "drop1"
  type: "Dropout"
  bottom: "fc1"
  top: "fc1"
  dropout_param {
    dropout_ratio: 0.1
  }
}
layer {
  name: "fc2"
  type: "InnerProduct"
  bottom: "fc1"
  top: "fc2"
  param {
    lr_mult: 1
    decay_mult: 1
  }
  param {
    lr_mult: 2
    decay_mult: 0
  }
  inner_product_param {
    num_output: 2
    weight_filler {
      type: "xavier"
    }
    bias_filler {
      type: "constant"
      value: 0
    }
  }
}
layer {
  name: "loss6"
  type: "SoftmaxWithLoss"
  bottom: "fc2"
  bottom: "label"
  top: "loss"
}
I0411 19:42:08.153972   103 layer_factory.hpp:76] Creating layer data
I0411 19:42:08.154013   103 net.cpp:110] Creating Layer data
I0411 19:42:08.154036   103 net.cpp:433] data -> data
I0411 19:42:08.154077   103 net.cpp:433] data -> label
I0411 19:42:08.154111   103 hdf5_data_layer.cpp:80] Loading list of HDF5 filenames from: /data/data/train.txt
I0411 19:42:08.154741   103 hdf5_data_layer.cpp:94] Number of HDF5 files: 3
I0411 19:42:08.156776   103 hdf5.cpp:35] Datatype class: H5T_INTEGER
I0411 19:42:08.205932   103 hdf5.cpp:32] Datatype class: H5T_FLOAT
I0411 19:42:08.206754   103 net.cpp:155] Setting up data
I0411 19:42:08.206779   103 net.cpp:163] Top shape: 100 4 1 101 (40400)
I0411 19:42:08.206785   103 net.cpp:163] Top shape: 100 1 (100)
I0411 19:42:08.206794   103 layer_factory.hpp:76] Creating layer conv1
I0411 19:42:08.206815   103 net.cpp:110] Creating Layer conv1
I0411 19:42:08.206820   103 net.cpp:477] conv1 <- data
I0411 19:42:08.206830   103 net.cpp:433] conv1 -> conv1
I0411 19:42:08.207746   103 net.cpp:155] Setting up conv1
I0411 19:42:08.207758   103 net.cpp:163] Top shape: 100 16 1 102 (163200)
I0411 19:42:08.207774   103 layer_factory.hpp:76] Creating layer relu1
I0411 19:42:08.207783   103 net.cpp:110] Creating Layer relu1
I0411 19:42:08.207788   103 net.cpp:477] relu1 <- conv1
I0411 19:42:08.207794   103 net.cpp:419] relu1 -> conv1 (in-place)
I0411 19:42:08.207803   103 net.cpp:155] Setting up relu1
I0411 19:42:08.207833   103 net.cpp:163] Top shape: 100 16 1 102 (163200)
I0411 19:42:08.207839   103 layer_factory.hpp:76] Creating layer pool1
I0411 19:42:08.207846   103 net.cpp:110] Creating Layer pool1
I0411 19:42:08.207851   103 net.cpp:477] pool1 <- conv1
I0411 19:42:08.207857   103 net.cpp:433] pool1 -> pool1
I0411 19:42:08.207896   103 net.cpp:155] Setting up pool1
I0411 19:42:08.207904   103 net.cpp:163] Top shape: 100 16 1 1 (1600)
I0411 19:42:08.207909   103 layer_factory.hpp:76] Creating layer fc1
I0411 19:42:08.207921   103 net.cpp:110] Creating Layer fc1
I0411 19:42:08.207926   103 net.cpp:477] fc1 <- pool1
I0411 19:42:08.207932   103 net.cpp:433] fc1 -> fc1
I0411 19:42:08.208441   103 net.cpp:155] Setting up fc1
I0411 19:42:08.208451   103 net.cpp:163] Top shape: 100 32 (3200)
I0411 19:42:08.208461   103 layer_factory.hpp:76] Creating layer relu4
I0411 19:42:08.208468   103 net.cpp:110] Creating Layer relu4
I0411 19:42:08.208472   103 net.cpp:477] relu4 <- fc1
I0411 19:42:08.208478   103 net.cpp:419] relu4 -> fc1 (in-place)
I0411 19:42:08.208485   103 net.cpp:155] Setting up relu4
I0411 19:42:08.208492   103 net.cpp:163] Top shape: 100 32 (3200)
I0411 19:42:08.208495   103 layer_factory.hpp:76] Creating layer drop1
I0411 19:42:08.208505   103 net.cpp:110] Creating Layer drop1
I0411 19:42:08.208509   103 net.cpp:477] drop1 <- fc1
I0411 19:42:08.208515   103 net.cpp:419] drop1 -> fc1 (in-place)
I0411 19:42:08.208537   103 net.cpp:155] Setting up drop1
I0411 19:42:08.208544   103 net.cpp:163] Top shape: 100 32 (3200)
I0411 19:42:08.208549   103 layer_factory.hpp:76] Creating layer fc2
I0411 19:42:08.208557   103 net.cpp:110] Creating Layer fc2
I0411 19:42:08.208561   103 net.cpp:477] fc2 <- fc1
I0411 19:42:08.208569   103 net.cpp:433] fc2 -> fc2
I0411 19:42:08.208638   103 net.cpp:155] Setting up fc2
I0411 19:42:08.208647   103 net.cpp:163] Top shape: 100 2 (200)
I0411 19:42:08.208655   103 layer_factory.hpp:76] Creating layer loss6
I0411 19:42:08.208665   103 net.cpp:110] Creating Layer loss6
I0411 19:42:08.208670   103 net.cpp:477] loss6 <- fc2
I0411 19:42:08.208675   103 net.cpp:477] loss6 <- label
I0411 19:42:08.208683   103 net.cpp:433] loss6 -> loss
I0411 19:42:08.208695   103 layer_factory.hpp:76] Creating layer loss6
I0411 19:42:08.208767   103 net.cpp:155] Setting up loss6
…
I0411 19:42:08.208848   103 net.cpp:298] Memory required for data: 1513204
I0411 19:42:08.210055   103 solver.cpp:187] Creating test net (#0) specified by net file: trainval.prototxt
I0411 19:42:08.210147   103 net.cpp:339] The NetState phase (1) differed from the phase (0) specified by a rule in layer data
I0411 19:42:08.210387   103 net.cpp:50] Initializing net from parameters: 
name: "EmbedNet"
state {
  phase: TEST
}
layer {
  name: "data"
  type: "HDF5Data"
  top: "data"
  top: "label"
  include {
    phase: TEST
  }
  hdf5_data_param {
    source: "/data/data/valid.txt"
    batch_size: 100
  }
}
layer {
  name: "conv1"
  type: "Convolution"
  bottom: "data"
  top: "conv1"
  param {
    lr_mult: 1
    decay_mult: 1
  }
  param {
    lr_mult: 2
    decay_mult: 0
  }
  convolution_param {
    num_output: 16
    weight_filler {
      type: "xavier"
    }
    bias_filler {
      type: "constant"
      value: 0
    }
    pad_h: 0
    pad_w: 12
    kernel_h: 1
    kernel_w: 24
    stride_h: 1
    stride_w: 1
  }
}
layer {
  name: "relu1"
  type: "ReLU"
  bottom: "conv1"
  top: "conv1"
}
layer {
  name: "pool1"
  type: "Pooling"
  bottom: "conv1"
  top: "pool1"
  pooling_param {
    pool: MAX
    kernel_h: 1
    kernel_w: 102
    stride_h: 1
    stride_w: 2
  }
}
layer {
  name: "fc1"
  type: "InnerProduct"
  bottom: "pool1"
  top: "fc1"
  param {
    lr_mult: 1
    decay_mult: 1
  }
  param {
    lr_mult: 2
    decay_mult: 0
  }
  inner_product_param {
    num_output: 32
    weight_filler {
      type: "xavier"
    }
    bias_filler {
      type: "constant"
      value: 0
    }
  }
}
layer {
  name: "relu4"
  type: "ReLU"
  bottom: "fc1"
  top: "fc1"
}
layer {
  name: "drop1"
  type: "Dropout"
  bottom: "fc1"
  top: "fc1"
  dropout_param {
    dropout_ratio: 0.1
  }
}
layer {
  name: "fc2"
  type: "InnerProduct"
  bottom: "fc1"
  top: "fc2"
  param {
    lr_mult: 1
    decay_mult: 1
  }
  param {
    lr_mult: 2
    decay_mult: 0
  }
  inner_product_param {
    num_output: 2
    weight_filler {
      type: "xavier"
    }
    bias_filler {
      type: "constant"
      value: 0
    }
  }
}
layer {
  name: "loss6"
  type: "SoftmaxWithLoss"
  bottom: "fc2"
  bottom: "label"
  top: "loss"
}
layer {
  name: "accuracy"
  type: "Accuracy"
  bottom: "fc2"
  bottom: "label"
  top: "accuracy"
  include {
    phase: TEST
  }
}
I0411 19:42:08.210564   103 layer_factory.hpp:76] Creating layer data
I0411 19:42:08.210592   103 net.cpp:110] Creating Layer data
I0411 19:42:08.210608   103 net.cpp:433] data -> data
I0411 19:42:08.210634   103 net.cpp:433] data -> label
I0411 19:42:08.210657   103 hdf5_data_layer.cpp:80] Loading list of HDF5 filenames from: /data/data/valid.txt
I0411 19:42:08.211212   103 hdf5_data_layer.cpp:94] Number of HDF5 files: 1
I0411 19:42:08.232646   103 net.cpp:155] Setting up data
I0411 19:42:08.232667   103 net.cpp:163] Top shape: 100 4 1 101 (40400)
I0411 19:42:08.232673   103 net.cpp:163] Top shape: 100 1 (100)
I0411 19:42:08.232686   103 layer_factory.hpp:76] Creating layer label_data_1_split
I0411 19:42:08.232700   103 net.cpp:110] Creating Layer label_data_1_split
I0411 19:42:08.232705   103 net.cpp:477] label_data_1_split <- label
I0411 19:42:08.232713   103 net.cpp:433] label_data_1_split -> label_data_1_split_0
I0411 19:42:08.232723   103 net.cpp:433] label_data_1_split -> label_data_1_split_1
I0411 19:42:08.232754   103 net.cpp:155] Setting up label_data_1_split
I0411 19:42:08.232764   103 net.cpp:163] Top shape: 100 1 (100)
I0411 19:42:08.232769   103 net.cpp:163] Top shape: 100 1 (100)
I0411 19:42:08.232774   103 layer_factory.hpp:76] Creating layer conv1
I0411 19:42:08.232784   103 net.cpp:110] Creating Layer conv1
I0411 19:42:08.232789   103 net.cpp:477] conv1 <- data
I0411 19:42:08.232795   103 net.cpp:433] conv1 -> conv1
I0411 19:42:08.232959   103 net.cpp:155] Setting up conv1
I0411 19:42:08.232969   103 net.cpp:163] Top shape: 100 16 1 102 (163200)
I0411 19:42:08.232980   103 layer_factory.hpp:76] Creating layer relu1
I0411 19:42:08.232986   103 net.cpp:110] Creating Layer relu1
I0411 19:42:08.232991   103 net.cpp:477] relu1 <- conv1
I0411 19:42:08.232997   103 net.cpp:419] relu1 -> conv1 (in-place)
I0411 19:42:08.233005   103 net.cpp:155] Setting up relu1
I0411 19:42:08.233009   103 net.cpp:163] Top shape: 100 16 1 102 (163200)
I0411 19:42:08.233013   103 layer_factory.hpp:76] Creating layer pool1
I0411 19:42:08.233021   103 net.cpp:110] Creating Layer pool1
I0411 19:42:08.233026   103 net.cpp:477] pool1 <- conv1
I0411 19:42:08.233031   103 net.cpp:433] pool1 -> pool1
I0411 19:42:08.233062   103 net.cpp:155] Setting up pool1
I0411 19:42:08.233070   103 net.cpp:163] Top shape: 100 16 1 1 (1600)
I0411 19:42:08.233074   103 layer_factory.hpp:76] Creating layer fc1
I0411 19:42:08.233083   103 net.cpp:110] Creating Layer fc1
I0411 19:42:08.233086   103 net.cpp:477] fc1 <- pool1
I0411 19:42:08.233093   103 net.cpp:433] fc1 -> fc1
I0411 19:42:08.233173   103 net.cpp:155] Setting up fc1
I0411 19:42:08.233181   103 net.cpp:163] Top shape: 100 32 (3200)
I0411 19:42:08.233191   103 layer_factory.hpp:76] Creating layer relu4
I0411 19:42:08.233197   103 net.cpp:110] Creating Layer relu4
I0411 19:42:08.233202   103 net.cpp:477] relu4 <- fc1
I0411 19:42:08.233207   103 net.cpp:419] relu4 -> fc1 (in-place)
I0411 19:42:08.233214   103 net.cpp:155] Setting up relu4
I0411 19:42:08.233219   103 net.cpp:163] Top shape: 100 32 (3200)
I0411 19:42:08.233223   103 layer_factory.hpp:76] Creating layer drop1
I0411 19:42:08.233230   103 net.cpp:110] Creating Layer drop1
I0411 19:42:08.233234   103 net.cpp:477] drop1 <- fc1
I0411 19:42:08.233240   103 net.cpp:419] drop1 -> fc1 (in-place)
I0411 19:42:08.233259   103 net.cpp:155] Setting up drop1
I0411 19:42:08.233266   103 net.cpp:163] Top shape: 100 32 (3200)
I0411 19:42:08.233271   103 layer_factory.hpp:76] Creating layer fc2
I0411 19:42:08.233279   103 net.cpp:110] Creating Layer fc2
I0411 19:42:08.233283   103 net.cpp:477] fc2 <- fc1
I0411 19:42:08.233290   103 net.cpp:433] fc2 -> fc2
I0411 19:42:08.233362   103 net.cpp:155] Setting up fc2
I0411 19:42:08.233371   103 net.cpp:163] Top shape: 100 2 (200)
I0411 19:42:08.233379   103 layer_factory.hpp:76] Creating layer fc2_fc2_0_split
I0411 19:42:08.233386   103 net.cpp:110] Creating Layer fc2_fc2_0_split
I0411 19:42:08.233389   103 net.cpp:477] fc2_fc2_0_split <- fc2
I0411 19:42:08.233395   103 net.cpp:433] fc2_fc2_0_split -> fc2_fc2_0_split_0
I0411 19:42:08.233403   103 net.cpp:433] fc2_fc2_0_split -> fc2_fc2_0_split_1
I0411 19:42:08.233430   103 net.cpp:155] Setting up fc2_fc2_0_split
I0411 19:42:08.233438   103 net.cpp:163] Top shape: 100 2 (200)
I0411 19:42:08.233443   103 net.cpp:163] Top shape: 100 2 (200)
I0411 19:42:08.233448   103 layer_factory.hpp:76] Creating layer loss6
I0411 19:42:08.233454   103 net.cpp:110] Creating Layer loss6
I0411 19:42:08.233458   103 net.cpp:477] loss6 <- fc2_fc2_0_split_0
I0411 19:42:08.233464   103 net.cpp:477] loss6 <- label_data_1_split_0
I0411 19:42:08.233469   103 net.cpp:433] loss6 -> loss
I0411 19:42:08.233479   103 layer_factory.hpp:76] Creating layer loss6
…
